checkpoints/checkpoint0.1.pth (torch, 172461 bytes, 8 tensors)

conv1.0.weight f4 [16, 4, 5, 5]
0	0xbd2f63b2	-0.042819686
1	0xbccdc406	-0.025117885
2	0xbcd64195	-0.026154319
3	0xbbe32a25	-0.0069325143
4	0xbc7c1a5a	-0.015387142
5	0xbcb0dc34	-0.021589376
6	0xbcbe3b87	-0.023221744
7	0xbd2477f6	-0.040153466
8	0xbd38178a	-0.044944324
9	0xbbbd40ef	-0.005775563
10	0xbcf2b6f6	-0.029628258
11	0x3c1b0acb	0.009463022
12	0xbd0adcf7	-0.033902135
13	0x3a4ee428	0.00078922743
14	0x3c58e4a0	0.013238102
15	0xbc6309e0	-0.013857335
16	0x3bff6483	0.0077939644
17	0xbd06ba84	-0.03289272
18	0x3bd27260	0.006422326
19	0x3d11a5d2	0.03555853
20	0x3cc44fe6	0.02396388
21	0xbc89f1aa	-0.016838867
22	0xbb8444d4	-0.0040365253
23	0x3bd8214e	0.006595767
24	0x3d1511f1	0.036394063
25	0xbc2d74a0	-0.010586888
26	0xbd263a4b	-0.040582936
27	0x3d08a3ec	0.033359453
28	0xbc771526	-0.015080726
29	0xbc197c62	-0.009368034
30	0x3d0adb86	0.03390076
31	0xbd391d0d	-0.04519372
32	0x3b77140d	0.003770116
33	0xbb171b61	-0.002305709
34	0xbce1bb5a	-0.027555156
35	0x3cb78d0f	0.02240613
36	0x3c172f49	0.009227582
37	0xbc3b23ae	-0.011422081
38	0x3b0eee60	0.0021809563
39	0xbd09cf2b	-0.033644836
40	0x3c5d215d	0.013496724
41	0x3c0d579c	0.008626845
42	0xbc4cf6be	-0.01251
43	0x3c66d8c1	0.014089764
44	0xbd39ac9a	-0.04533062
45	0x3d459c03	0.048244487
46	0x3b051ade	0.0020310204
47	0x3b88a143	0.0041696145
48	0x3c8ee9f4	0.017445542
49	0xbc4f2946	-0.012644118
50	0xbd469838	-0.04848501
51	0xbd2b096c	-0.041757032
52	0xbc4af51c	-0.01238754
53	0x3cfba6f5	0.03071926
54	0xbd1f780c	-0.038932845
55	0xbc5b517e	-0.0133861285
56	0x3d17cb34	0.037059024
57	0xbc72ef36	-0.01482754
58	0x3cf078d8	0.029354498
59	0xbce0310c	-0.027367137
60	0xbc53a8e1	-0.012918682
61	0x3d484a5f	0.04889905
62	0xbc5c931f	-0.013462811
63	0x3cfc01f7	0.030762656
64	0x3c5d2692	0.013497965
65	0xbc90b115	-0.017662564
66	0x3ca52ceb	0.02016302
67	0x3cc7b798	0.024379537
68	0x3cb41998	0.02198486
69	0xbcb4efe9	-0.022087054
70	0xbd472e20	-0.048627973
71	0xbb56cd16	-0.003277605
72	0x3c943c91	0.018095287
73	0x3a8ca900	0.0010731518
74	0xbb3bb94f	-0.0028644388
75	0xbc7035db	-0.014661278
76	0xbc783fbc	-0.015151914
77	0x3c9697a8	0.018382862
78	0xbc856b40	-0.016286492
79	0xbcb2f7eb	-0.021846732
80	0x3baf35ac	0.0053469744
81	0x3b3e775c	0.0029062843
82	0x3d290483	0.04126407
83	0x3cea3ded	0.028593982
84	0xbc62ae27	-0.0138354665
85	0xbd0f7dbd	-0.035032023
86	0x3cbc58a7	0.022991491
87	0x3d00fba9	0.03149
88	0x3b885759	0.0041608033
89	0xbcfa6fea	-0.030570943
90	0xbc849525	-0.016184399
91	0x3c1c945d	0.009556857
92	0x3d2b0767	0.041755106
93	0xbc23312d	-0.009960455
94	0x3bfa1980	0.0076324344
95	0xbd4c8fa3	-0.04994167
96	0xbc7d17ba	-0.015447551
97	0x3b0ebc24	0.002177962
98	0xb9db1175	-0.00041783942
99	0xbcadbd1b	-0.021208337
100	0x3cba2692	0.02272347
101	0xbc6140cd	-0.01374836
102	0xbd69561c	-0.056966886
103	0xbc3ae5c7	-0.011407322
104	0xbc47aca4	-0.012187157
105	0xbcd11314	-0.025521792
106	0xbcce2201	-0.025162699
107	0xbc9f714f	-0.01946321
108	0x3c975aad	0.018475855
109	0x3ca22af3	0.01979587
110	0xbd7969cc	-0.06089191
111	0xbd17cbed	-0.037059713
112	0xbd37ffab	-0.04492156
113	0xbcd30386	-0.025758516
114	0xbc404632	-0.011735486
115	0xbdbf2f57	-0.09335201
116	0x3c4c0389	0.012452015
117	0xbd85bbc5	-0.06529955
118	0xbc740fd6	-0.014896354
119	0xbcaba6a2	-0.02095348
120	0xbc774e42	-0.015094342
121	0xbb203590	-0.0024445988
122	0x3c3a6310	0.011376157
123	0x3c19b979	0.009382599
124	0x3c23e1c0	0.010002553
125	0xba85b9cd	-0.0010202468
126	0xbd82b885	-0.063828506
127	0x3d748ba2	0.059703477
128	0x3c49d331	0.012318418
129	0x3c87b5c7	0.01656617
130	0x3a6ac11e	0.00089551683
131	0xbd2304d5	-0.03979953
132	0x3d547db4	0.051877692
133	0x3aec52e8	0.0018030079
134	0xbca6a89d	-0.020344073
135	0xbcd0be24	-0.025481291
136	0xbd165c7f	-0.036709305
137	0x3cb61cce	0.022230532
138	0x3c14fbe4	0.0090932585
139	0xbd1e8c41	-0.038707975
140	0xbd13c138	-0.03607294
141	0xbcce3a8a	-0.025174398
142	0x3c4739cd	0.012159777
143	0x3c27c598	0.010239981
144	0x3bb834f3	0.0056215464
145	0xbcd3299e	-0.02577668
146	0xbc489032	-0.01224141
147	0xbc1ff9df	-0.009764164
148	0xbd1a05a0	-0.03760302
149	0x3acc4f7c	0.0015587653
150	0x3c3cafb5	0.011516501
151	0xbaeb5c8a	-0.0017956656
152	0xbc8c9822	-0.017162386
153	0x3cdb0a34	0.026738264
154	0xbd4688d6	-0.04847034
155	0x3ce0d6d3	0.027446186
156	0xbb9ac621	-0.004723326
157	0x3c814108	0.01577808
158	0x3c8ed521	0.017435612
159	0xbc843f2c	-0.016143404
160	0x3ccee3a2	0.025255028
161	0xbc0ed78a	-0.008718381
162	0x3d0a9d6c	0.033841535
163	0x3ce1bee7	0.02755685
164	0xbc9a4757	-0.018832846
165	0xbba088f6	-0.0048991395
166	0xbb74e443	-0.00373675
167	0x3d468f7d	0.048476685
168	0x3acc6d7d	0.0015596595
169	0xbc5b12ba	-0.013371164
170	0xbb80af81	-0.0039271717
171	0x3b90385b	0.0044012493
172	0x3d3d7901	0.046257976
173	0xbb98ac67	-0.004659224
174	0x3cb6fd20	0.022337496
175	0xbcbcd1b8	-0.02304922
176	0xbcd530e3	-0.026024288
177	0x3c464111	0.012100474
178	0xbc82321e	-0.015893038
179	0xbcee0d2f	-0.02905902
180	0xbc00f139	-0.007870012
181	0x3af1d951	0.0018451606
182	0x3b7d8e88	0.0038689692
183	0x3a74902b	0.0009329344
184	0xbca30765	-0.019900987
185	0xbace1d61	-0.0015725308
186	0x3c1e160e	0.009648813
187	0xbbc6cf60	-0.0060672015
188	0x3c1535ec	0.009107094
189	0xbcd46203	-0.025925642
190	0xbc93fdfa	-0.018065441
191	0xbc74ae2a	-0.014934102
192	0x3c5dd32c	0.013539117
193	0xbca6eb52	-0.020375881
194	0xbcb6204f	-0.022232203
195	0x3c05ed8c	0.008174311
196	0x3c613072	0.01374446
197	0x3b87444f	0.004128016
198	0xbc6f0e44	-0.0145908035
199	0xbcb08d35	-0.021551708
200	0x3cce4a5d	0.025181944
201	0xbd31e51c	-0.043431386
202	0xbce80fc6	-0.028327834
203	0x3c0192ec	0.007908564
204	0xbc52767c	-0.012845632
205	0xbc9573f3	-0.018243765
206	0xbd65230b	-0.055941623
207	0xba25a518	-0.00063188514
208	0x3d43592e	0.04769247
209	0xbc28c0ed	-0.010299903
210	0xbc72998b	-0.014807115
211	0xba1db1f3	-0.0006015591
212	0xbbc0ac3d	-0.0058799074
213	0x3c8a6f25	0.016898701
214	0x3c5f81ef	0.013641818
215	0xb7514e3a	-1.2475584e-05
216	0x3ce45af1	0.027875395
217	0x3ac4a5dd	0.0015003044
218	0xbb62136f	-0.0034496447
219	0xbbaa0883	-0.005189003
220	0xbdaa842c	-0.08325991
221	0xbe3764a1	-0.1790948
222	0xbd087248	-0.033312112
223	0xbbdc7d8c	-0.0067288335
224	0xbc8bace9	-0.017050223
225	0x3b9c32d3	0.004766801
226	0xbd0008bd	-0.031258333
227	0xbbbb3451	-0.0057130237
228	0x3ca408de	0.02002376
229	0x3c88b43e	0.016687509
230	0xbd7c1d52	-0.0615514
231	0xbd3abb3a	-0.04558871
232	0xbce1523b	-0.02750503
233	0x3bb9e32a	0.005672832
234	0x3b88a120	0.004169598
235	0xbc1e250e	-0.009652389
236	0xbc260d4b	-0.010135005
237	0x3b9bb926	0.004752296
238	0xbb42898b	-0.0029684033
239	0x3d0f68ed	0.035012174
240	0xbc3758e4	-0.011190627
241	0xbc847c14	-0.016172446
242	0xbccad720	-0.024760783
243	0x3bfb7f6f	0.0076751034
244	0x3d0a2d52	0.033734627
245	0xbdc1c6ce	-0.09461747
246	0xbd21891d	-0.039437402
247	0xbd3cdd3c	-0.046109423
248	0xbce6f09a	-0.0281909
249	0xb6ff1f13	-7.6032097e-06
250	0xbc8b11b9	-0.016976224
251	0xbce7ceac	-0.028296791
252	0x3c27826f	0.010223969
253	0x3c2036a9	0.009778657
254	0x3c827b3f	0.015927909
255	0xbc52ce61	-0.012866587

conv1.0.bias f4 [16]
0	0xbd8d5bf4	-0.06902304
1	0x3c346c26	0.011012113
2	0x3cc68f1a	0.024238158
3	0x3c62704f	0.013820722
4	0x3c10618d	0.00881232
5	0x3bb51132	0.0055257315
6	0xbe006243	-0.12537484
7	0x3c3d5669	0.011556246
8	0x3bf99530	0.0076166615
9	0x3c0053c2	0.007832469
10	0x3c4d10e1	0.012516231
11	0x3c0c2cf4	0.00855564
12	0x3cb78e8d	0.02240684
13	0x3ca5e59a	0.020251084
14	0xbda763bb	-0.08173319
15	0x3c2004d7	0.009766779

conv2.0.weight f4 [32, 16, 5, 5]
0	0xbc99d3a8	-0.018777683
1	0xbd45cd11	-0.04829127
2	0xbd2c3db5	-0.042051036
3	0x3bf83a6d	0.0075753243
4	0x3c98b7d7	0.01864235
5	0xbd323777	-0.043509927
6	0xbb9dbd96	-0.00481386
7	0x3c1de241	0.009636463
8	0xbd69f991	-0.05712277
9	0xbb5ad1ac	-0.0033389134
10	0xbd975c60	-0.07390666
11	0xbd47f8ca	-0.048821248
12	0x3c9458df	0.018108783
13	0x38905c4d	6.8836474e-05
14	0x3d3638bc	0.0444877
15	0x3ca617a6	0.020274948
16	0xbd68d4de	-0.05684363
17	0xbce2a3fe	-0.027666088
18	0xbd209964	-0.039208785
19	0xbcd727b9	-0.026264058
20	0x3987a9b2	0.0002587564
21	0xbb119296	-0.0022212616
22	0x3b21e659	0.0024703948
23	0x3b545b24	0.0032402957
24	0x3b56fe79	0.0032805486
25	0xbd8e56f8	-0.06950182
26	0xbd1629ee	-0.03666108
27	0xbc7c24f6	-0.015389672
28	0xba00653f	-0.00048978993
29	0xbc158245	-0.009125297
30	0x3c33b5c0	0.010968626
31	0x3c2cfd47	0.010558433
32	0x3c7c6b39	0.015406423
33	0xbcdccfb7	-0.026954515
34	0x3c5d2050	0.013496473
35	0xbc9a0b51	-0.018804224
36	0x3caae05a	0.020858932
37	0x3ca0aaad	0.019612635
38	0x3b88f466	0.004179525
39	0xbce3a3dd	-0.027788097
40	0xbbb0341a	-0.0053773047
41	0x3ca4243e	0.020036813
42	0x3cd89c69	0.02644177
43	0x3d2b5499	0.041828725
44	0xbd1903c2	-0.0373571
45	0x3bca7d8d	0.0061795176
46	0xbc38f684	-0.011289243
47	0x3c9a5d27	0.018843247
48	0x3cddbdac	0.027067982
49	0xbca7b127	-0.020470215
50	0xbcc72ae1	-0.024312438
51	0xbd15ba05	-0.036554355
52	0x3c75a3a3	0.014992627
53	0xbc22de03	-0.009940627
54	0x3be2137d	0.006899296
55	0xbb92529a	-0.0044654133
56	0xbc3faf2e	-0.011699481
57	0xbc827ea2	-0.015929524
58	0xbc7d76ce	-0.01547022
59	0xbd1dd8e0	-0.038536906
60	0x3bcc9d04	0.0062443037
61	0x3d612845	0.054970045
62	0x3cb68e2e	0.022284593
63	0x3bc315a8	0.0059535094
64	0x3cd16601	0.025561335
65	0xbc05e9f0	-0.008173451
66	0x3d26bfac	0.040710136
67	0xbc622b09	-0.013804206
68	0xbcd1edd8	-0.025626108
69	0x39661ef3	0.00021946039
70	0x3d5cd300	0.053912163
71	0x3967b5f6	0.00022097662
72	0x3c719392	0.014744656
73	0x3cf915d0	0.030405909
74	0x3becf47b	0.007231293
75	0x3c96ebec	0.018423043
76	0x3c8ad407	0.016946806
77	0xbb767a98	-0.0037609693
78	0x3c7149be	0.014727054
79	0xbc786c7b	-0.0151625825
80	0x3caf3370	0.021386832
81	0x3d25f55b	0.040517192
82	0x3c7d72dc	0.015469279
83	0xbce8113c	-0.02832853
84	0xbc44f4fc	-0.012021299
85	0x3c902fbf	0.017600892
86	0xbc91f81a	-0.0178185
87	0x3cdf82e2	0.02728409
88	0x3bf284e9	0.007401098
89	0xbd226bf1	-0.039653722
90	0x3c480cdd	0.012210098
91	0xbcb79a0c	-0.022412322
92	0x3aa2c5e2	0.0012418593
93	0xbd1f222a	-0.03885094
94	0xbc3701d3	-0.0111698685
95	0x3d231a79	0.03982017
96	0xbc9895f1	-0.018626185
97	0x3d05f8aa	0.032707848
98	0x3d5dbba9	0.054134045
99	0xbcf9eab9	-0.030507432
100	0xbc6b5ffa	-0.014366144
101	0xbc3857c0	-0.01125139
102	0x3ac83ac0	0.0015276298
103	0xbd941be8	-0.07231885
104	0xbd708bc6	-0.05872705
105	0xbc67366f	-0.014112099
106	0x3cabaffc	0.02095794
107	0xbb237300	-0.0024940372
108	0xbc0d07a6	-0.008607781
109	0xbb9dcfa7	-0.004816014
110	0xbc9a2acb	-0.018819233
111	0x3b3538a6	0.0027652173
112	0xbbdb8f64	-0.006700443
113	0x3b12573a	0.0022329823
114	0xbca9e327	-0.020738197
115	0xbd074e49	-0.033033643
116	0xbdba6683	-0.09101584
117	0xbd66d3c5	-0.056354303
118	0xbd86e8fb	-0.06587406
119	0xbd44b048	-0.048019677
120	0xbc893cb2	-0.016752575
121	0xbd229041	-0.039688352
122	0xbd8c5569	-0.06852228
123	0xbd24dbb1	-0.040248577
124	0xbd177577	-0.036977258
125	0xbc8bed4f	-0.017080931
126	0xbb282065	-0.0025654074
127	0x3bc3ba64	0.005973147
128	0x3cb6bd98	0.022307202
129	0xbccd3e65	-0.025054166
130	0x3be2eb5e	0.0069250306
131	0xbbc73c4d	-0.0060801865
132	0xbd960f01	-0.073270805
133	0xbc456109	-0.012047061
134	0xba7f5174	-0.00097396155
135	0x3b7044db	0.0036662135
136	0xbc26869a	-0.010163927
137	0xbd932de1	-0.07186485
138	0xbd0b06c3	-0.033941995
139	0xbd2c4c39	-0.04206488
140	0x3c3bef01	0.011470557
141	0xbd71a8a0	-0.058998704
142	0xbda6cd7c	-0.08144662
143	0xbdcd4e73	-0.100247286
144	0x3ccfe881	0.025379421
145	0xbcd81fad	-0.026382292
146	0xbbdd8bfd	-0.0067610727
147	0xbcb7743e	-0.022394296
148	0xbd1a4d3f	-0.037671324
149	0x3c635073	0.013874161
150	0x3abef556	0.0014568965
151	0x3d06d3f4	0.032916978
152	0x3c26f44b	0.01019008
153	0x3bfe8819	0.007767689
154	0xbc5ce9e7	-0.013483501
155	0x3ccdc775	0.025119523
156	0x3cf4dadb	0.029889515
157	0xbc511337	-0.012760929
158	0xbd0dbc34	-0.034603313
159	0xbc966d21	-0.018362584
160	0x3cdc844b	0.026918551
161	0x3bda8f32	0.0066699022
162	0xbc0ca7d6	-0.008584937
163	0x3c1a606d	0.009422404
164	0x3ac91d9e	0.001534391
165	0x3c2b7cce	0.0104667675
166	0x3c2fec2a	0.010737458
167	0xbb609782	-0.0034269993
168	0xbd2c9dc0	-0.04214263
169	0xbabbcc81	-0.0014327915
170	0x3c0b64a5	0.008507882
171	0xbc61439a	-0.013749028
172	0xbb44dba8	-0.0030038152
173	0xbd0e822c	-0.03479211
174	0xbc9d5708	-0.019206539
175	0x3c478d59	0.012179696
176	0x3c785eb5	0.015159299
177	0xbbc7a99c	-0.006093217
178	0x3bf627fd	0.007512091
179	0xbbae4716	-0.0053185327
180	0xbc79ec3e	-0.015254078
181	0xbcaab78b	-0.020839473
182	0xbd3fc0f7	-0.046814885
183	0xbcf65519	-0.030069875
184	0xbc82844f	-0.01593223
185	0xbc7361bc	-0.014854845
186	0x3cb9c8df	0.02267879
187	0x3ae34aae	0.0017340982
188	0x3c2c3ec3	0.01051301
189	0x3a19b6a8	0.0005863705
190	0x3d16b3d0	0.036792576
191	0xbcf6cc1c	-0.030126624
192	0xbc70521d	-0.014668015
193	0xbb9617fd	-0.0045804963
194	0xbb982f42	-0.0046443054
195	0xbb9f40a4	-0.0048600007
196	0x3aa16caa	0.001231571
197	0xbd41747a	-0.04723022
198	0xbae9610a	-0.0017805409
199	0xbc8df165	-0.01732702
200	0xbd2e66da	-0.042578556
201	0xbd3bb771	-0.04582924
202	0x3cccab8f	0.02498415
203	0xbc6dca32	-0.014513539
204	0xbc6c37b2	-0.014417576
205	0xbc6c8965	-0.014437054
206	0xbbdbea6b	-0.0067112944
207	0x3cb0eada	0.021596361
208	0x3c9c24d5	0.019060532
209	0xbb9237f2	-0.0044622356
210	0xbd47639f	-0.04867899
211	0x3d17923c	0.037004694
212	0x3cdfcf7d	0.027320618
213	0xbd5f017e	-0.054444782
214	0xbc175cee	-0.009238465
215	0x3cd8c05d	0.026458913
216	0x3cdfa6a3	0.027301138
217	0x3c91006d	0.017700398
218	0xbc775333	-0.01509552
219	0x3cfc219a	0.030777741
220	0x3c3a37fe	0.011365889
221	0x3c15537b	0.009114142
222	0x3ca732c3	0.020409947
223	0x3cfb0d6d	0.03064605
224	0xba956366	-0.0011397421
225	0x3b33b689	0.0027422032
226	0x3c971fc8	0.018447772
227	0xbd78a9c3	-0.060708772
228	0x3ca32fb4	0.019920208
229	0x3cbdaf57	0.023154898
230	0x3ca675e8	0.020319894
231	0x3ce29d96	0.027663033
232	0xbd7d4428	-0.061832577
233	0xbd056516	-0.032567106
234	0xbca7d059	-0.02048509
235	0xbcbdc127	-0.023163391
236	0x3c494303	0.012284043
237	0xbb9a356c	-0.0047060754
238	0xbd622756	-0.055213295
239	0x3d008586	0.031377338
240	0x3b70b4ba	0.0036728815
241	0xbc4f0377	-0.012635103
242	0xbc6a40c4	-0.014297668
243	0xbcb8bcf2	-0.022551034
244	0x3cc806cb	0.024417302
245	0x3c854c91	0.016271861
246	0x3c56892a	0.013094226
247	0x3c4bbd29	0.012435236
248	0x3d4a4146	0.049378656
249	0xbacf83c2	-0.0015832114
250	0xbccd916a	-0.025093753
251	0x3a856d15	0.0010179604
252	0xbc98a551	-0.018633517
253	0xbc46ba5f	-0.012129395
254	0x3c44d673	0.012014019
255	0x3c39dfe0	0.01134488

conv2.0.bias f4 [32]
0	0xbb0399f0	-0.0020080768
1	0xbb86b144	-0.004110487
2	0xbccdacb5	-0.025106767
3	0xbaa07ee8	-0.0012244852
4	0xbd349ebb	-0.04409669
5	0x3c0cc3d0	0.008591607
6	0xbc070014	-0.008239765
7	0xbb89443a	-0.0041890414
8	0x3beb6149	0.007183228
9	0x3cfbe835	0.030750373
10	0xbc958432	-0.018251512
11	0x3d815da0	0.06316686
12	0x3c1b1695	0.009465833
13	0x3b2ef173	0.0026694208
14	0xbd3bb0a8	-0.04582277
15	0x3d0aef83	0.033919822
16	0xbd3881a5	-0.045045514
17	0xbce0a33b	-0.027421584
18	0xba85a6a2	-0.0010196755
19	0xbcba6d41	-0.022757174
20	0xbcd10f1a	-0.025519896
21	0xbd4f1b7d	-0.050563324
22	0xbc752787	-0.014963037
23	0xbc93f351	-0.018060358
24	0xbd78bd92	-0.060727663
25	0xbb246bc1	-0.002508864
26	0xbdb2416e	-0.08703886
27	0x3bd575de	0.006514295
28	0x3d1d82d2	0.038454838
29	0x3c57871c	0.013154771
30	0x3d1a3259	0.03764567
31	0xbbb82181	-0.0056192284

conv3.0.weight f4 [64, 32, 3, 3]
0	0x3b3d4536	0.0028880364
1	0x3d2692d7	0.04066738
2	0xbcc90e91	-0.024543079
3	0xbcf2d37d	-0.029641861
4	0x3ca23c4f	0.019804148
5	0xbd4a91f1	-0.049455587
6	0xbd82e9b9	-0.06392235
7	0xbde6de0b	-0.1127282
8	0xbd9c8b7e	-0.076437935
9	0xbd0f41c7	-0.03497484
10	0x3ba853f2	0.00513696
11	0x3cfd194b	0.03089585
12	0xbdad6d55	-0.08468119
13	0xbdd1d538	-0.102457464
14	0x3ba094cc	0.0049005505
15	0x3b54689c	0.0032410985
16	0x3d07f238	0.033189982
17	0xbc2e88f0	-0.010652766
18	0xbbc5297a	-0.0060169073
19	0xbda30ac1	-0.079610355
20	0xbc9c2b9f	-0.019063769
21	0xbc954e06	-0.018225681
22	0xbcc16446	-0.023607384
23	0x3ca7bed3	0.020476734
24	0xbd5c6e5a	-0.053816177
25	0xba917a84	-0.0011099135
26	0x3c47cd2f	0.012194916
27	0xbcc46243	-0.023972636
28	0xbd3585d5	-0.044317085
29	0xba217243	-0.0006158689
30	0xbd3a9ae8	-0.045557886
31	0xbc908efa	-0.017646302
32	0x3cd2d4f3	0.025736308
33	0xbcb124a6	-0.02162392
34	0x39a7c1b6	0.00031997048
35	0xb9bb378f	-0.00035708814
36	0x3ad8de29	0.0016545701
37	0x3cc20944	0.023686059
38	0xbda85726	-0.08219747
39	0x3d248c5f	0.04017293
40	0xbc4ad9ae	-0.012381
41	0xbcf41590	-0.029795438
42	0xbac0033c	-0.0014649401
43	0x3c717a2e	0.014738603
44	0x3cc954ae	0.024576511
45	0x3cb87094	0.022514619
46	0x3c992567	0.018694593
47	0xbb0aa9b9	-0.0021158291
48	0x3c5a8b20	0.013338834
49	0xbdf15956	-0.117846176
50	0x3c083c82	0.008315207
51	0xbceec4bd	-0.029146546
52	0xbc4f430a	-0.012650261
53	0xba8bb94c	-0.0010660081
54	0x3d519242	0.051164873
55	0x3bab2c0a	0.0052237557
56	0xbcf187b2	-0.02948365
57	0x3ca875ee	0.020564046
58	0xbd68e698	-0.056860536
59	0xbd8c9d5f	-0.06865954
60	0xbba22347	-0.004948053
61	0xbde946b7	-0.11390441
62	0xbc4a4ac4	-0.012346927
63	0x3d4d0294	0.050051287
64	0xbdd6746b	-0.10471424
65	0xbceb8e25	-0.028754303
66	0x3cb0e8a5	0.021595309
67	0xbc293e53	-0.010329801
68	0x3c2c8064	0.010528658
69	0x3d24828d	0.040163565
70	0xbad03460	-0.001588475
71	0x3b3c027d	0.0028688007
72	0xbd8a73b0	-0.06760347
73	0xbc3b5dcc	-0.011435937
74	0xbde87594	-0.11350551
75	0xbcafdb50	-0.021466881
76	0xbd22c062	-0.03973425
77	0xbda4aeb6	-0.08041136
78	0xbb14aa5b	-0.0022684548
79	0xbd9af883	-0.07566931
80	0xb94da1c2	-0.00019610583
81	0xbc4f154b	-0.012639354
82	0xbc1133bd	-0.008862433
83	0xba1ffbc7	-0.00061028864
84	0xbd11b206	-0.035570167
85	0x3cbf3911	0.023342641
86	0xbaa68161	-0.0012703353
87	0xbc8d2a25	-0.01723201
88	0x3c987307	0.018609537
89	0x3c7f15b2	0.015569137
90	0xbd0f5473	-0.034992646
91	0xbc9c409d	-0.019073779
92	0xbd1ba799	-0.03800163
93	0x3bcd71d4	0.006269673
94	0x3bbacec5	0.0057009184
95	0xbd018f12	-0.031630583
96	0x3c1485e5	0.009065126
97	0xbce06afd	-0.027394766
98	0xbcf307fb	-0.029666891
99	0xbcfea66f	-0.031085221
100	0xbd03c015	-0.032165606
101	0xbd409394	-0.04701574
102	0xbd96c16d	-0.07361112
103	0xbc66f229	-0.014095821
104	0xbc0f7df2	-0.008758055
105	0xbd2ce4f5	-0.042210538
106	0x3b3fa5b4	0.0029243054
107	0xbd508d98	-0.050916284
108	0xbb389cb7	-0.0028169581
109	0xbaa410ea	-0.0012517248
110	0xbda92afa	-0.0826015
111	0xbd2cad5e	-0.042157523
112	0xbd6abcf1	-0.057309095
113	0xbb8ecec2	-0.0043581435
114	0xbca7b26b	-0.020470819
115	0xbd033ef9	-0.032042477
116	0xbda9e741	-0.08296061
117	0x3bace5b4	0.005276406
118	0xbd7cdefb	-0.06173609
119	0xbe4739e9	-0.19455685
120	0xbc968d14	-0.018377818
121	0xbd8b5f25	-0.06805257
122	0xbcffe90f	-0.03123906
123	0xbba25a06	-0.0049545793
124	0xbb0607e4	-0.002045148
125	0xbcab1421	-0.020883622
126	0xbd2e2169	-0.04251233
127	0xbc391ad3	-0.011297899
128	0x3ccae9b6	0.024769645
129	0xbd8f19b0	-0.069873214
130	0xbd3096cb	-0.043112557
131	0x3cc01d7f	0.023451565
132	0x3c04df01	0.008109809
133	0xbc4aecc2	-0.012385549
134	0x3c66d8a3	0.014089736
135	0xbda49311	-0.08035863
136	0xbcefd8af	-0.029278127
137	0x3b0774c8	0.0020668972
138	0xbc7c0564	-0.015382145
139	0xbcf2fd0f	-0.029661683
140	0x3bd49fc4	0.006488772
141	0x3c90377c	0.017604582
142	0x3ca2658f	0.019823818
143	0x3c47c8dc	0.012193885
144	0xbcaf153e	-0.021372434
145	0xbc1df826	-0.009641683
146	0x3c723bfd	0.01478481
147	0xbd69974d	-0.057029057
148	0x3c1b0107	0.009460694
149	0xbcba1cac	-0.02271875
150	0xbcc7bb16	-0.024381202
151	0xbc8f2e89	-0.017478244
152	0x3cd80e07	0.026373876
153	0x3c878d17	0.016546769
154	0xbbb0b89d	-0.0053931014
155	0x3cd5d209	0.02610113
156	0xbd16f086	-0.036850475
157	0xbc016ad9	-0.00789901
158	0xbbd2ef72	-0.0064372355
159	0x3d1f1b5f	0.038844462
160	0xbc9ef1e2	-0.019402448
161	0xbbae7b96	-0.005324791
162	0xbbbadb37	-0.005702402
163	0x3c6c4e3f	0.014422952
164	0xbb8ffdcf	-0.00439427
165	0xbd999664	-0.07499388
166	0xbd3cbfcc	-0.04608135
167	0x3c5ada6c	0.01335774
168	0xbc1fb16b	-0.00974689
169	0x3cbb5d7f	0.02287173
170	0xbbbe07ac	-0.0057992544
171	0xbc3b8f2d	-0.01144771
172	0xbcbca2f0	-0.023026913
173	0xbca42896	-0.020038884
174	0x3bb0bf2d	0.0053938837
175	0xbd9f65b8	-0.07783073
176	0x3c439f26	0.011939799
177	0xbdb7eede	-0.08981107
178	0xbd62bb56	-0.05535444
179	0x3c9af2c8	0.018914595
180	0x3a8bac19	0.0010656147
181	0x3cbb3a82	0.022855047
182	0xbd738122	-0.059449323
183	0xbc0fc606	-0.00877524
184	0xbd45b1b8	-0.04826519
185	0x3ba561ee	0.0050470745
186	0xbcfba1e9	-0.030716853
187	0xbdc8f9df	-0.09813284
188	0x3c9febb1	0.019521566
189	0xbd5190a2	-0.051163323
190	0xbcdfc00e	-0.027313258
191	0x3d027584	0.031850353
192	0xbdd86151	-0.10565437
193	0x3c989e8c	0.018630289
194	0xbc05d2b2	-0.008167909
195	0xbce98a1d	-0.02850824
196	0x3caefefd	0.021361822
197	0x3c2f7e73	0.0107113
198	0xbcaa7e90	-0.020812303
199	0xbd12bb01	-0.035822872
200	0x3d39429c	0.04522954
201	0x3ab09979	0.0013473473
202	0xbb443be0	-0.0029942915
203	0xbb9b86fa	-0.004746315
204	0x3c402f09	0.011729964
205	0x3b0edf90	0.0021800734
206	0xbbda2ca1	-0.006658152
207	0x3c7ba805	0.015359883
208	0xbda916fa	-0.082563356
209	0x3c17015b	0.009216632
210	0xbd2b0d1f	-0.04176056
211	0xbc2e877f	-0.010652422
212	0xb9198f84	-0.00014644681
213	0x3c0ec69a	0.0087143425
214	0x3cca7dec	0.024718247
215	0x3cf32025	0.029678414
216	0xbb6a5b5a	-0.0035760016
217	0xbc966155	-0.018356958
218	0xbd20b0f4	-0.039231256
219	0xbd3ab388	-0.04558137
220	0x3b16c574	0.0023005875
221	0xbba291a7	-0.004961211
222	0x3d09b820	0.03362286
223	0xbc37f38c	-0.0112275
224	0x3cda828b	0.026673576
225	0x3cc49edd	0.024001533
226	0xbce65a55	-0.028119246
227	0xbbfa21b6	-0.007633413
228	0xbcd3c7e0	-0.025852144
229	0xbcd417dc	-0.025890283
230	0x3cd69dc4	0.026198275
231	0xbc81bf90	-0.015838414
232	0x3c433bfd	0.011916158
233	0x3c249957	0.010046325
234	0xbbe2653a	-0.00690904
235	0xbcf65d17	-0.030073686
236	0x38ac9521	8.2293765e-05
237	0xbb5b8fa5	-0.0033502367
238	0x3d11791e	0.035515897
239	0xbc8a6003	-0.016891485
240	0x3c6003ef	0.013672813
241	0xbd165746	-0.036704324
242	0x3cf1f899	0.029537486
243	0x3d692a4d	0.056925107
244	0x3bb678ed	0.0055686147
245	0xbbac7eda	-0.0052641453
246	0x3c178231	0.009247349
247	0xbccdee25	-0.02513797
248	0xbc3f1423	-0.011662516
249	0xba810f06	-0.0009846396
250	0xbd3f1c24	-0.046657696
251	0xbd750144	-0.05981566
252	0xbb51cd41	-0.003201321
253	0xba83e485	-0.0010062611
254	0xbd0c8494	-0.034306124
255	0x3bb3fe43	0.005492957

conv3.0.bias f4 [64]
0	0x3d0d6a58	0.034525245
1	0xbd47c557	-0.048772182
2	0x3d72f232	0.059313007
3	0xbced5b6e	-0.028974261
4	0xbd10ce08	-0.035352737
5	0xbb9514df	-0.004549607
6	0x3bf6eea0	0.0075357705
7	0x3c1f1d15	0.009711524
8	0xbc4838d4	-0.01222058
9	0xbc7f7f29	-0.015594282
10	0x3c8a962d	0.016917313
11	0xbc47a183	-0.0121845035
12	0xbb956771	-0.0045594503
13	0x3d6c2e99	0.057661626
14	0xbc4fa597	-0.012673757
15	0xbcd3a26f	-0.02583429
16	0x3d4dc636	0.050237857
17	0x3d1c29a7	0.03812566
18	0xbd43f582	-0.047841556
19	0xbbabadcb	-0.0052392236
20	0xbcd23d50	-0.025664002
21	0xbaae8f9a	-0.0013317943
22	0xbcd1bdde	-0.025603231
23	0xbd26e359	-0.04074416
24	0xbcbca72d	-0.023028934
25	0xbc604c16	-0.013690015
26	0xbb022aad	-0.0019861863
27	0x3d355dd3	0.04427893
28	0x3aa83ef0	0.001283614
29	0x3d512bc2	0.05106712
30	0x3ce81d7c	0.028334372
31	0xbcd666c3	-0.026172047
32	0xb9951b59	-0.0002843987
33	0x3d4b56a3	0.04964317
34	0xbc06edc3	-0.008235398
35	0x3c0e0926	0.008669173
36	0xbc62a416	-0.013833066
37	0x3d832440	0.064033985
38	0xbc0c9f0a	-0.00858284
39	0x3d775272	0.06038136
40	0x3d41748a	0.04723028
41	0xbc32e423	-0.01091865
42	0x3cc27d9e	0.02374154
43	0xbd0de433	-0.034641456
44	0x3d0ccd6a	0.034375586
45	0xbb77ed4b	-0.0037830647
46	0xbcd63f86	-0.026153337
47	0xbd2fbe51	-0.04290611
48	0xbd0c43ea	-0.034244455
49	0xbca795c7	-0.020457162
50	0x3d03f6af	0.032217678
51	0x3d32b829	0.04363266
52	0xbc8e248a	-0.017351408
53	0x3d1c7266	0.038195036
54	0x3a7a5d51	0.00095506484
55	0xbc80796b	-0.015682897
56	0x3c228b61	0.009920926
57	0x3d53974d	0.051657964
58	0x3d693beb	0.056941908
59	0xbcc28e72	-0.023749564
60	0x3cdbf9c3	0.026852494
61	0x3b658e5d	0.0035027482
62	0xbd526908	-0.051369697
63	0xbbc7756b	-0.0060869954

out.weight f4 [3, 3136]
0	0x3c15d2f4	0.009144533
1	0x3d599df0	0.053129137
2	0x3d4aef43	0.049544584
3	0x3d7153f8	0.05891797
4	0x3ca1ec4c	0.019765995
5	0x3d426d4a	0.047467507
6	0xbbc5feaa	-0.006042321
7	0x3bfe7247	0.0077650878
8	0xbb819ba6	-0.0039553223
9	0xbcf23032	-0.029563997
10	0x3bb23916	0.005438934
11	0xbaa9e086	-0.001296059
12	0x3c7af950	0.01531823
13	0x3c7e0453	0.015503961
14	0xbb1f429c	-0.0024301177
15	0x39b65098	0.00034773792
16	0xbbfdb3fe	-0.007742404
17	0x3ba64f94	0.0050754044
18	0x3b3b99af	0.0028625538
19	0xbc856e4f	-0.01628795
20	0x3b2c182a	0.002625952
21	0xbc3336f9	-0.0109383995
22	0xbb67f0fe	-0.0035391445
23	0x3c087eac	0.008330982
24	0xbaca5259	-0.0015435918
25	0x3b0ded55	0.0021656353
26	0x3cc212bf	0.02369058
27	0x3ba9d4d3	0.0051828413
28	0xbd8b5943	-0.06804135
29	0x3cc095ae	0.023508873
30	0x3c325c36	0.010886243
31	0x3bc64fd7	0.006051998
32	0x3c43c62d	0.011949104
33	0xbb6ac787	-0.0035824494
34	0x3c9276bc	0.017878883
35	0xbaef2d5c	-0.0018247771
36	0xbc98d851	-0.018657835
37	0xbc9f3c2e	-0.019437876
38	0xbbcb0490	-0.0061956123
39	0x3a067588	0.0005129208
40	0xbcf7371c	-0.030177645
41	0xbc4ca2fc	-0.01249003
42	0x3c3bf9fe	0.011473177
43	0x3b4bed3c	0.0031116745
44	0xbb059db1	-0.002038818
45	0x3c1c185e	0.009527294
46	0xbb394362	-0.0028268923
47	0x3ad79016	0.0016446139
48	0xbbe5fa5b	-0.00701837
49	0xbbe1bc7e	-0.006888925
50	0xbda5af7a	-0.0809011
51	0xbcfb21dd	-0.030655796
52	0xba00b7e4	-0.00049102143
53	0xbd3c5940	-0.045983553
54	0xbd52ca7f	-0.051462647
55	0x3c26c914	0.010179777
56	0x3beabfee	0.007163993
57	0x3d2404ba	0.04004357
58	0x3c963274	0.018334605
59	0xbcd1196b	-0.025524816
60	0x3d4d189b	0.050072294
61	0xbbbb1059	-0.005708736
62	0xbc91f256	-0.01781575
63	0x3c14a827	0.009073294
64	0x3c99c2a0	0.018769562
65	0xbbf026d6	-0.0073288484
66	0xbc1de09f	-0.009636073
67	0x3a68fde7	0.0008887932
68	0x3d164a45	0.036691923
69	0x3d4e7428	0.050403744
70	0xbce84cea	-0.028356988
71	0x3b15e627	0.0022872777
72	0x3d2b8ef3	0.041884374
73	0x3bb30af1	0.005463951
74	0x3bcb0c94	0.006196568
75	0xbbb96cd6	-0.005658726
76	0x3c718438	0.014740996
77	0xbd12732a	-0.03575436
78	0x3bc4566f	0.005991749
79	0x3a912c5b	0.0011075841
80	0x3c20c4a9	0.009812512
81	0xbbeb51be	-0.0071813753
82	0xbbeb6d3c	-0.0071846526
83	0xbbb1eef6	-0.0054300977
84	0x3cff972a	0.03120001
85	0x3c638efa	0.013889069
86	0x3c50ab5e	0.01273617
87	0x3beaaca9	0.007161696
88	0xbbb82fe6	-0.0056209443
89	0xbbf18c67	-0.0073714736
90	0xbcce8963	-0.025211995
91	0x38043b27	3.1526342e-05
92	0x3c0d7abc	0.008635219
93	0xbd5bf7ca	-0.053703107
94	0xbc6f8640	-0.01461941
95	0xbc3d0322	-0.011536391
96	0xbb63f4ba	-0.003478332
97	0xbae98780	-0.0017816871
98	0x3c12d5a8	0.008962072
99	0x3d27f4f1	0.04100508
100	0x3d53a755	0.051673252
101	0x3d9e81fd	0.07739637
102	0x3d2150c9	0.039383683
103	0x3d417063	0.04722632
104	0xba181c21	-0.00058025314
105	0x3bc84309	0.006111507
106	0x3bb8657a	0.0056273313
107	0x3bf18044	0.007370027
108	0x3c206243	0.009789052
109	0x3bc1baa2	0.005912141
110	0xbbd031e5	-0.006353604
111	0xbd012d3c	-0.03153728
112	0xbbf50a0d	-0.007478005
113	0xbcc9b7c4	-0.02462376
114	0xbb99b43a	-0.004690674
115	0xbb36c7c5	-0.0027890068
116	0x3c997399	0.01873188
117	0x3c3ade11	0.011405484
118	0x3beb7f46	0.007186803
119	0xbbfe8d66	-0.007768321
120	0x3b282b72	0.002566066
121	0x3aaf102c	0.001335626
122	0x3b9a2b39	0.0047048596
123	0xbaf53718	-0.0018708436
124	0x3b66a70e	0.0035194787
125	0x3b02a016	0.0019931844
126	0xbda0c91c	-0.078508586
127	0x3aea7dcb	0.0017890272
128	0x3adf5099	0.001703757
129	0x3ac32385	0.0014887905
130	0x396d19c9	0.00022611687
131	0x3b506618	0.0031799134
132	0xbbf223c5	-0.007389518
133	0xbd2ff64e	-0.042959504
134	0xbb8e81f5	-0.004348988
135	0xbbbf66c8	-0.00584111
136	0x3b2d6453	0.0026457503
137	0xba687fee	-0.00088691607
138	0xbc41b0cc	-0.011821937
139	0x3b9a8265	0.0047152513
140	0x3c411cbb	0.011786635
141	0xbc84949d	-0.016184146
142	0xbc893c37	-0.016752345
143	0xbbde316d	-0.0067807944
144	0xbc1b4f76	-0.009479394
145	0x3b850b1c	0.004060162
146	0xbc85ee89	-0.016349094
147	0x3c598f61	0.013278813
148	0x3d62ff74	0.0554194
149	0x3c957d87	0.018248333
150	0x3b19f329	0.0023490882
151	0x3dbd97c5	0.09257463
152	0x3cb2b9b4	0.021817066
153	0xbb7d803d	-0.0038681172
154	0x3bde5c6b	0.0067859194
155	0xbcf1b88e	-0.029506948
156	0xbd088c3a	-0.033336855
157	0x3c4e9cfe	0.012610672
158	0xb85add4d	-5.2181353e-05
159	0x3cd24bf8	0.02567099
160	0x3c1265fb	0.008935447
161	0xb99ce70b	-0.0002992678
162	0x3b488615	0.0030597497
163	0xbc147e2c	-0.009063285
164	0x3bd80c57	0.006593268
165	0x3c225e89	0.009910234
166	0x3cdb6f24	0.026786394
167	0xbd501528	-0.050801426
168	0xbad32b3e	-0.001611091
169	0x3b6f98b6	0.0036559529
170	0x3b1aee06	0.0023640408
171	0x39950283	0.00028421366
172	0xbb2d71e9	-0.00264656
173	0xbcb9b536	-0.022669416
174	0x39c137c1	0.00036853369
175	0x3d5e29b7	0.054239
176	0xbd1aa400	-0.03775406
177	0xbbdc7343	-0.0067276075
178	0x3bcf5125	0.006326812
179	0xbb6c4a02	-0.0036054854
180	0x3bf18cd4	0.0073715243
181	0x3a342b5d	0.0006872917
182	0xbc258ba9	-0.010104098
183	0xbd4a29bf	-0.04935622
184	0x3b269912	0.0025420827
185	0xb806d367	-3.2144973e-05
186	0x3c38b588	0.011273749
187	0x3be4fecc	0.006988382
188	0x3bd5aba1	0.006520704
189	0xbb0a34d5	-0.002108862
190	0x3d06779c	0.032828912
191	0xbd1543cb	-0.036441606
192	0xbc75e2e3	-0.015007707
193	0x3cd67dee	0.026183095
194	0xbd5ff346	-0.054675363
195	0x3c0a2b3a	0.008433158
196	0x3c276fa8	0.010219492
197	0xbc54d855	-0.012991031
198	0xbc6fdd32	-0.014640139
199	0xbb443d11	-0.0029943625
200	0x3c8a3a7f	0.016873596
201	0xbc32e09d	-0.01091781
202	0xbc09a4ef	-0.00840114
203	0x3c3653fe	0.011128424
204	0x3c40b4d2	0.011761861
205	0xbc49dfc2	-0.012321414
206	0xbb6204cb	-0.003448772
207	0xbb872e33	-0.0041253804
208	0x3bbfc52d	0.0058523626
209	0x3be68f99	0.007036161
210	0x3b6778cf	0.003531981
211	0x3c89a9bd	0.01680457
212	0xbb6edcc1	-0.0036447498
213	0x3b2e2426	0.002657184
214	0xbb7de8df	-0.0038743538
215	0xbc662634	-0.014047194
216	0x3c99448d	0.018709445
217	0x3c64504b	0.013935159
218	0xbcb75408	-0.022378936
219	0x3ca29efa	0.019851197
220	0xbbafbd72	-0.00536316
221	0x3beff4d5	0.0073228874
222	0xbb8d191c	-0.004305972
223	0x3bf4bcd2	0.007468798
224	0x3d551c6f	0.05202907
225	0xbc6a2c99	-0.0142928595
226	0x3cdf2f56	0.027244251
227	0xbaeb8bba	-0.0017970719
228	0xbbc4a11b	-0.0060006506
229	0xbb3c2382	-0.0028707688
230	0x3b9ca93a	0.0047809156
231	0x3c6d8f71	0.014499531
232	0x3c90240a	0.01759531
233	0xbb951117	-0.0045491564
234	0x3c80fd1d	0.015745694
235	0x3c357321	0.011074812
236	0xbb9c5032	-0.004770302
237	0x3c1279ad	0.008940143
238	0x3cc38882	0.023868803
239	0xbc16fd2f	-0.009215637
240	0xbd1d03c5	-0.038333673
241	0x3cbaa602	0.022784237
242	0xbcaaf46d	-0.020868504
243	0xbcf1a2f3	-0.029496646
244	0x3c79eadb	0.015253748
245	0xbc0a90d0	-0.008457378
246	0x3c923f70	0.017852515
247	0xbdabca6e	-0.0838822
248	0x3d416982	0.04721976
249	0x3ca55422	0.02018172
250	0x3cd167ca	0.025562186
251	0xbaa99565	-0.00129382
252	0x3c7fb6f4	0.015607584
253	0x3b19a0d4	0.0023441808
254	0xbd201bc5	-0.039088983
255	0xbc598558	-0.0132764205

out.bias f4 [3]
0	0x3d96badc	0.07359859
1	0x3d84612d	0.06463847
2	0x3d86db05	0.065847434
